…
model.add(MaxPooling2D(pool_size=(4,4)))
​
model.add(Flatten())
model.add(Dense(512, activation='relu'))
model.add(Dropout(0.4))
model.add(Dense(128, activation='relu'))
model.add(Dense(36, activation='softmax'))
model.compile(loss='sparse_categorical_crossentropy', optimizer=optimizers.Adam(lr=0.0001), metrics=[custom_f1score])
add Codeadd Markdown
model.summary()
model.summary()
Model: "sequential"
_________________________________________________________________
 Layer (type)                Output Shape              Param #   
=================================================================
 conv2d (Conv2D)             (None, 28, 28, 16)        23248     
                                                                 
 conv2d_1 (Conv2D)           (None, 28, 28, 32)        131104    
                                                                 
 conv2d_2 (Conv2D)           (None, 28, 28, 64)        131136    
                                                                 
 conv2d_3 (Conv2D)           (None, 28, 28, 128)       131200    
                                                                 
 max_pooling2d (MaxPooling2D  (None, 7, 7, 128)        0         
 )                                                               
                                                                 
 flatten (Flatten)           (None, 6272)              0         
                                                                 
 dense (Dense)               (None, 512)               3211776   
                                                                 
 dropout (Dropout)           (None, 512)               0         
                                                                 
 dense_1 (Dense)             (None, 128)               65664     
                                                                 
 dense_2 (Dense)             (None, 36)                4644      
                                                                 
=================================================================
Total params: 3,698,772
Trainable params: 3,698,772
Non-trainable params: 0
_________________________________________________________________
add Codeadd Markdown
class stop_training_callback(tf.keras.callbacks.Callback):
    def on_epoch_end(self, epoch, logs={}):
…
